…
    "![download-2.png](attachment:download-2.png)"
   ]
  },
  {
   "cell_type": "code",
   "execution_count": 11,
   "id": "f287c603",
   "metadata": {},
   "outputs": [
    {
     "name": "stdout",
     "output_type": "stream",
     "text": [
      "Model: \"model\"\n",
      "__________________________________________________________________________________________________\n",
      "Layer (type)                    Output Shape         Param #     Connected to                     \n",
      "==================================================================================================\n",
      "input_1 (InputLayer)            [(None, 224, 224, 3) 0                                            \n",
      "__________________________________________________________________________________________________\n",
      "conv2d (Conv2D)                 (None, 224, 224, 64) 1792        input_1[0][0]                    \n",
      "__________________________________________________________________________________________________\n",
      "conv2d_1 (Conv2D)               (None, 224, 224, 64) 36928       conv2d[0][0]                     \n",
      "__________________________________________________________________________________________________\n",
      "max_pooling2d (MaxPooling2D)    (None, 112, 112, 64) 0           conv2d_1[0][0]                   \n",
      "__________________________________________________________________________________________________\n",
      "conv2d_2 (Conv2D)               (None, 112, 112, 128 73856       max_pooling2d[0][0]              \n",
      "__________________________________________________________________________________________________\n",
      "conv2d_3 (Conv2D)               (None, 112, 112, 128 147584      conv2d_2[0][0]                   \n",
      "__________________________________________________________________________________________________\n",
      "max_pooling2d_1 (MaxPooling2D)  (None, 56, 56, 128)  0           conv2d_3[0][0]                   \n",
      "__________________________________________________________________________________________________\n",
      "conv2d_4 (Conv2D)               (None, 56, 56, 256)  295168      max_pooling2d_1[0][0]            \n",
      "__________________________________________________________________________________________________\n",
      "conv2d_5 (Conv2D)               (None, 56, 56, 256)  590080      conv2d_4[0][0]                   \n",
      "__________________________________________________________________________________________________\n",
      "conv2d_6 (Conv2D)               (None, 56, 56, 256)  590080      conv2d_5[0][0]                   \n",
      "__________________________________________________________________________________________________\n",
      "max_pooling2d_2 (MaxPooling2D)  (None, 28, 28, 256)  0           conv2d_6[0][0]                   \n",
      "__________________________________________________________________________________________________\n",
      "conv2d_7 (Conv2D)               (None, 28, 28, 512)  1180160     max_pooling2d_2[0][0]            \n",
      "__________________________________________________________________________________________________\n",
      "conv2d_8 (Conv2D)               (None, 28, 28, 512)  2359808     conv2d_7[0][0]                   \n",
      "__________________________________________________________________________________________________\n",
      "conv2d_9 (Conv2D)               (None, 28, 28, 512)  2359808     conv2d_8[0][0]                   \n",
      "__________________________________________________________________________________________________\n",
      "max_pooling2d_3 (MaxPooling2D)  (None, 14, 14, 512)  0           conv2d_9[0][0]                   \n",
      "__________________________________________________________________________________________________\n",
      "conv2d_10 (Conv2D)              (None, 14, 14, 512)  2359808     max_pooling2d_3[0][0]            \n",
      "__________________________________________________________________________________________________\n",
      "conv2d_11 (Conv2D)              (None, 14, 14, 512)  2359808     conv2d_10[0][0]                  \n",
      "__________________________________________________________________________________________________\n",
      "conv2d_12 (Conv2D)              (None, 14, 14, 512)  2359808     conv2d_11[0][0]                  \n",
      "__________________________________________________________________________________________________\n",
      "max_pooling2d_4 (MaxPooling2D)  (None, 7, 7, 512)    0           conv2d_12[0][0]                  \n",
      "__________________________________________________________________________________________________\n",
      "input_2 (InputLayer)            [(None, 68, 2)]      0                                            \n",
      "__________________________________________________________________________________________________\n",
      "flatten (Flatten)               (None, 25088)        0           max_pooling2d_4[0][0]            \n",
      "__________________________________________________________________________________________________\n",
      "flatten_1 (Flatten)             (None, 136)          0           input_2[0][0]                    \n",
      "__________________________________________________________________________________________________\n",
      "concatenate (Concatenate)       (None, 25224)        0           flatten[0][0]                    \n",
      "                                                                 flatten_1[0][0]                  \n",
      "__________________________________________________________________________________________________\n",
      "dense (Dense)                   (None, 4096)         103321600   concatenate[0][0]                \n",
      "__________________________________________________________________________________________________\n",
      "dense_1 (Dense)                 (None, 4096)         16781312    dense[0][0]                      \n",
      "__________________________________________________________________________________________________\n",
      "dense_3 (Dense)                 (None, 1)            4097        dense_1[0][0]                    \n",
      "__________________________________________________________________________________________________\n",
      "dense_4 (Dense)                 (None, 1)            4097        dense_1[0][0]                    \n",
      "__________________________________________________________________________________________________\n",
      "dense_2 (Dense)                 (None, 8)            32776       dense_1[0][0]                    \n",
      "__________________________________________________________________________________________________\n",
      "arousal_output (Lambda)         (None, 1)            0           dense_3[0][0]                    \n",
      "__________________________________________________________________________________________________\n",
      "valence_output (Lambda)         (None, 1)            0           dense_4[0][0]                    \n",
      "__________________________________________________________________________________________________\n",
      "classification_output (Lambda)  (None, 8)            0           dense_2[0][0]                    \n",
      "==================================================================================================\n",
      "Total params: 134,858,570\n",
      "Trainable params: 134,858,570\n",
      "Non-trainable params: 0\n",
      "__________________________________________________________________________________________________\n"
     ]
    }
   ],
   "source": [
…
